saved_model.pth (torch, 8095 bytes, 4 tensors)

linear1.weight f4 [128, 8]
00000000: 4bb8 b0be fab0 1c3f e1e6 2ebf e6ae a63d
00000010: 1355 fbbe 51ce e3be 7c4f 44be 97c8 dcbe
00000020: 0c0c bebe 3d02 d8be 5bb2 633f 9ae9 32bf
00000030: e556 a1bf 39c1 d7be 8345 9b3d 3d84 bcbe
00000040: 8c9c 31be 979c b93e 71d4 703e 5630 02be
00000050: 5666 06bf 6f97 0abf 6b99 5dbe b6f3 0dbe
00000060: d0b9 9dbd 002c 793d 68ce 263d 765e 863d
00000070: 2c81 993d 1c47 76bd 4026 98bd 89ee 0c3e
00000080: d951 a43d 9caf ca3d 828a 593d 8042 4bbe
00000090: fae2 25be 7e9f 8cbe 7bf9 643d 5f66 63be
000000a0: 2e14 5abd 8093 e33c 2601 1b3e 64a0 c8bd
000000b0: 705d 81be b4a3 efbd d6f5 93be d928 d2be
000000c0: 1073 93bc 1044 4dbe 87b8 b4be 1676 8fbe
000000d0: a547 873d e44e c9bd ac90 c83d b0c1 9a3d
000000e0: e871 393d cbcd 42be a531 6dbe 08bb 5cbe
000000f0: d621 9c3d 1148 0dbd 1e21 b5be 2e40 46ba
00000100: 9935 d8be 0a1f 943e 31db a93e 23f4 973d
00000110: 5e36 a3be 99ff c4be d8f8 46bd 8c49 1ebd
00000120: 28d4 4c3d 8880 cdbe f0f1 b03d f4f5 46bd
00000130: 9096 a33d 538d 69be e564 c73d 1f6a d0bd
00000140: c520 e53e 3ffd 3bbe e8b0 28bf fa2a 9bbe
00000150: e874 72be 1ab8 13bf bf1c d8be ecab e33d
00000160: 193b 21bd 4e38 12bf 34fa e43e 990f 00bf
00000170: ffc6 42bd a205 84be 9850 bbbe b4bb 84be
00000180: 80e8 51be d4a2 99be 6e9d f5bd fdd9 773e
00000190: cb02 80be 54d1 00bf 9014 46bd 531c adbe
000001a0: 3c3c f6be 384e b1bf dc60 e63e 0ae1 643f
000001b0: e94a fabe a72e 18bf 542a 64bf 3417 46bf
000001c0: eb86 02bf 3d43 fdbe 68f2 6fbf 1d7c a23e
000001d0: f56c 8ebf 11ec 8abf 399c 0f3f 1a04 4fbf
000001e0: 4729 b0be 837e 123d e0d7 41bd ac23 03bf
000001f0: 870f 033e 7c47 8cbf 8e2b 23bf c509 c5bf
00000200: b38f 78bf 4546 f8bd a528 20bf 91e7 613f
00000210: 8f08 23bf 45ef 79bf a90e ca3d 376e 28bf
00000220: d88f 5abd c89f e93c 8ccd cabd d8bd 203e
00000230: 28e3 cdbd 79be a7bd 6511 5fbe b3f0 81be
00000240: f512 8bbe d338 f8be 6062 083f f4db 8bbf
00000250: cf25 c2be 367d 06bf 0b3e 293c 864a 1f3e
00000260: fb27 6ebe 8a66 45bf 72d6 c33c 64b2 e93e
00000270: 8e8f 43bf 9bef 03be 9406 afbe 39d4 99be
00000280: c3ec 573f 5b44 14bf 0543 5bbe f4b8 adbe
00000290: 3070 2dbf c89a f3bc cdc6 57be d4e3 23bf
000002a0: e81a adbe ee10 e4bd 2ab0 93be 7411 e83d
000002b0: 9ad2 603e 5b69 cf3c f3f1 86be 23f6 abbe
000002c0: 16f4 2d3f fbc9 fbbf 3262 bdbe 029b 4f3f
000002d0: 3e5c 32be 2de4 c13f 16a1 093d 8b0e a43e
000002e0: bf87 5f3d f3ba 623f 7416 8cbd eafe b73e
000002f0: 70ee 59be e123 66bf e320 11be dad7 e1be
00000300: 8f4d de3e f4ed 5cbf c0ae a93e 9211 aabf
00000310: 8c22 533f 7e66 dfbe 6a62 10c0 56d0 00c0
00000320: ab2c 0b3e 3491 ac3e 1481 76be 3e75 7b3e
00000330: 0a7b c9be f0da c3bc 8536 93be 5858 64be
00000340: 44ce 96be 106e 5a3d 3c30 be3d 6b0e 9bbe
00000350: 0f92 68be 2476 c1bd 904d 75bd 3217 b4be
00000360: 07d8 123f 434a 88be 8c54 1dbe 4027 6b3d
00000370: c673 273d bdfb 37bf 3d7e 92bd f13f 22be
00000380: 9546 06be 6e9a 903e 58f7 803d e622 81be
00000390: fb99 81be a3cd a0be ade5 86bd c118 b7be
000003a0: d8d0 e5bf 19eb b63e 415f 1d3f 7b88 033e
000003b0: 1359 6ebe bc60 a1be 08ca b03f c96d 08bf
000003c0: 0e27 e0be 2d4a 433e a997 52bf 539f 393e
000003d0: 28d6 f3be 86a4 c3be 3027 53bf 43d9 9fbe
000003e0: 168e f33e 6643 30bf 23ee b53c 508c 3cbc
000003f0: 1b05 ecbe de34 d6be 3362 38be f7da 87be
-0.34515604 0.61207545 -0.68321043 0.08138828 -0.49088344 -0.44493344 -0.19170946 -0.43121788
-0.37118566 -0.42189208 0.88944024 -0.698877 -1.2604643 -0.42139605 0.07581618 -0.3681964
-0.17344874 0.3625228 0.2351854 -0.12713751 -0.524999 -0.5413732 -0.21640556 -0.138625
-0.077014565 0.060832977 0.040724188 0.06560986 0.07495341 -0.06012641 -0.074291706 0.13762869
0.08023424 0.09896776 0.053110607 -0.19849586 -0.16199866 -0.27465433 0.055901986 -0.2220702
-0.0532419 0.027780294 0.15137157 -0.09796217 -0.252666 -0.11701146 -0.28898495 -0.4104679
-0.017999202 -0.20045495 -0.35297033 -0.2801978 0.06605462 -0.098295 0.09793219 0.07556474
0.045274645 -0.19023816 -0.23163469 -0.21555722 0.07623641 -0.034492556 -0.3537683 -0.0007562664
-0.42228392 0.2892993 0.33175042 0.07419612 -0.31877416 -0.38476256 -0.04857716 -0.03864436
0.050007015 -0.40137124 0.08639896 -0.048574403 0.07987702 -0.22807817 0.09736041 -0.10176491
0.44751564 -0.18358324 -0.6589494 -0.30306226 -0.23677409 -0.5770279 -0.42209432 0.11116776
-0.039363 -0.57117164 0.4472214 -0.500238 -0.04755306 -0.25785547 -0.36584926 -0.25924456
-0.20498848 -0.3000704 -0.11992918 0.2420425 -0.2500213 -0.5031941 -0.048359454 -0.33810672
-0.4809283 -1.3851995 0.44995773 0.8940588 -0.48885277 -0.59446186 -0.8912709 -0.77379155
-0.5098712 -0.4946536 -0.9372926 0.31735316 -1.1127001 -1.0853292 0.5609775 -0.80865633
-0.34406492 0.035765182 -0.047325015 -0.51226306 0.12798892 -1.0959315 -0.63738334 -1.5393606
-0.9709427 -0.12122778 -0.6256202 0.8824397 -0.63684934 -0.9763072 0.098660775 -0.65793175
-0.053359836 0.028518572 -0.09902486 0.1569742 -0.10053092 -0.08190627 -0.21783979 -0.2537895
-0.271629 -0.48480853 0.5327511 -1.0926499 -0.3791947 -0.52534807 0.010329734 0.15555772
-0.23257439 -0.7710959 0.023905966 0.45643914 -0.7639092 -0.12884371 -0.34184706 -0.30044726
0.84345645 -0.579168 -0.21412285 -0.3393017 -0.6774931 -0.029736891 -0.2107193 -0.64019513
-0.3380959 -0.111360416 -0.2884534 0.11331454 0.21955338 0.025318792 -0.26356468 -0.33586225
0.6795057 -1.9671015 -0.3698898 0.810959 -0.17418 1.5147759 0.03360089 0.32042345
0.054572817 0.8856651 -0.0684022 0.35936671 -0.21282363 -0.89898497 -0.14172702 -0.44109994
0.43418548 -0.8630059 0.33141136 -1.3286612 0.8247459 -0.43632883 -2.2560067 -2.0127158
0.13591258 0.3370453 -0.24072677 0.24556443 -0.39351684 -0.023908108 -0.28752533 -0.22299325
-0.29454243 0.05332762 0.09286544 -0.30284438 -0.22711967 -0.09446362 -0.059888422 -0.35173947
0.5736088 -0.26619157 -0.15364283 0.05741048 0.040881895 -0.718685 -0.07152984 -0.15844704
-0.13112862 0.2824282 0.06297177 -0.25221938 -0.2531279 -0.31406888 -0.06586776 -0.35761073
-1.7954359 0.3572624 0.6147347 0.12845032 -0.23276167 -0.31519115 1.3811655 -0.5329252
-0.43779796 0.19071265 -0.82262665 0.18127184 -0.47624326 -0.3821146 -0.8248167 -0.31220445
0.4756934 -0.6885284 0.022208279 -0.0115080625 -0.46097645 -0.4183721 -0.1800621 -0.26534244

linear1.bias f4 [128]
00000000: e82c 14bf 94f2 67bf 97b8 b0be ed09 c6be
00000010: 8de6 44bf d1f0 03bf f644 b2be c596 22be
00000020: fd0f a8be 2d78 d1be de50 1cbf f84e d5be
00000030: b26b 47be 17ac 2ebf a399 6d3b fdca 2cbe
00000040: 4d2c 31bf bc1e 85be 958d 6cbf 1a41 c0be
00000050: b478 52bf cba7 14bf d913 ffbe b1ed 49bf
00000060: e52c be3e 790b d0be a8b0 ccbd 756d 1ebf
00000070: 413e e6be 3191 43bf ce0d e7be e241 34bf
00000080: 7477 c0be 5437 1bbf 8403 16bf 8719 8bbe
00000090: 9fad 0fbf 7a07 eabe c848 ecbe 8803 8fbe
000000a0: e737 f5be c0e0 933d 42e0 fdbe cf2e c7be
000000b0: 116f bebe 7da6 0bbe dc13 aabf d92c dbbe
000000c0: ede1 0dbf 1af3 bfbe 31cd 43bf 2951 cfbe
000000d0: 7e16 69be 4d91 fabe 9e6e e7be 8382 31bf
000000e0: ed64 93bf 98c0 1cbe 78c6 eabe 48a2 9bbe
000000f0: b4ad 2dbe fda5 52bf 7c90 00bf e4b4 5cbe
00000100: 6aa1 f1bd d707 ecbe 678e 62bf f29a d4be
00000110: 6660 2bbf fcb8 c0be 0dc7 0bbe ccb9 823d
00000120: 00cc 5ebf ea36 01bf 12a8 5abe 6f23 82bf
00000130: 73a7 8bbe 005e 0c3e e317 c7be b351 a2bd
00000140: 6327 07bf 6512 85be e9a1 a4be 1e50 1ebf
00000150: a8b7 b1be 034f 01bf 27d0 aebe 8d3e 2ebf
00000160: 66a3 53bf c822 7cbd 68d3 29bd 2c3d f1bc
00000170: 90f3 07bf 26ed 44bf 36b2 f3be 3db5 19bf
00000180: fb57 cbbe 81e6 85be 79e5 6fbf b5d2 e2be
00000190: 8dc3 54bf de1c 55bf 85a0 87bf e2f6 50be
000001a0: f13e 24bf 12fa 91be ceed 5fbf 6701 14bf
000001b0: 1ae3 dd3d 6ebc 16be 192e c2be 7e10 e2be
000001c0: ff52 ecbe d982 04bf 012d 6fbe 2352 243f
000001d0: ca92 1bbf 3a2f b8be 1836 75be 2999 60be
000001e0: 9c1e 14be 4e42 29bf 1ecb dcbe d9e6 d4be
000001f0: fba0 a4be b07d c5be b371 dcbe 4bc0 17bf
-0.5788102 -0.9060452 -0.3451583 -0.38679448 -0.7691429 -0.5153933 -0.34818238 -0.15877827
-0.32824698 -0.40912 -0.61060894 -0.4166181 -0.19474676 -0.6823134 0.0036254905 -0.16874309
-0.6920822 -0.2600001 -0.9240354 -0.3754967 -0.8221543 -0.5806853 -0.4981983 -0.78878313
0.37143627 -0.40633753 -0.09994632 -0.6188577 -0.4496937 -0.7639342 -0.4512772 -0.7041303
-0.37591136 -0.606313 -0.58599114 -0.27167913 -0.561243 -0.4570883 -0.46149278 -0.27932382
-0.47894213 0.07220602 -0.49585158 -0.389029 -0.37194112 -0.13637729 -1.3287311 -0.42807654
-0.5542286 -0.3749016 -0.7648497 -0.40491608 -0.22762486 -0.4893898 -0.45201582 -0.6933977
-1.1515175 -0.15307844 -0.45854545 -0.30397248 -0.16960794 -0.8228453 -0.50220466 -0.2155338
-0.117983654 -0.4609973 -0.8849854 -0.41524464 -0.6694397 -0.37641132 -0.1365015 0.06383094
-0.8703003 -0.5047442 -0.21353176 -1.0167063 -0.2727619 0.13707733 -0.38885412 -0.07925739
-0.52794474 -0.25990596 -0.32154778 -0.61841 -0.3471043 -0.5051119 -0.34143183 -0.68064195
-0.826712 -0.061556607 -0.04146138 -0.029448114 -0.5310602 -0.7692436 -0.47596902 -0.6004217
-0.3971556 -0.26152423 -0.9370952 -0.44301382 -0.83110887 -0.8324717 -1.0595862 -0.20406678
-0.6415854 -0.285111 -0.87472236 -0.5781464 0.10834332 -0.14720318 -0.37925795 -0.44153208
-0.4615707 -0.5176216 -0.23357011 0.6418783 -0.6077086 -0.3597353 -0.23946416 -0.21933426
-0.14464802 -0.661168 -0.43123716 -0.41582373 -0.32154068 -0.38572454 -0.43055496 -0.5927779

linear2.weight f4 [4, 128]
00000000: 967f 14be 3e49 d03d 041a 623e d72a fc3c
00000010: 5b8c eb3b 296a af3d 9b7a 03bd 9ea1 a7bd
00000020: 0669 91bb 016d ad3d bd14 763e d4e6 10be
00000030: 25fc 173d 30e2 383e 8fb7 083f c880 013f
00000040: 3d9d b33e 9dac 9bbc 4287 eb3d 30ad 3cbd
00000050: c65e 49bf b8a5 003e e4ef 5abf dd6a 513c
00000060: 7a65 633f 9d26 b3bd c408 b9bc c777 cfbe
00000070: 9c81 a93c 07e9 413e 9c83 3abd 05dd 35bf
00000080: 6b24 66bd 6f6f 36bd a14a f23d 74e2 45bf
00000090: ddad 0e3e dcf9 28bf 8415 1b3e a0d6 353b
000000a0: dc7e 43bc 5eb1 b73f 1fff 813d 2f2a 86ba
000000b0: 69bd c3be 0d89 9a3e 0680 73bf 91ed 45bd
000000c0: 5ae2 38be cf96 f63d f318 fabe 572d aebd
000000d0: 272b c73d cace 71be ba3e 2bbe 15bf 2cbf
000000e0: 7439 cdbe eac7 bcbe 505b ad3d 9e1f 813d
000000f0: 867b 8d3b c870 823e 841f e6bd f581 e83c
00000100: 1262 76bd e665 6b3d 4263 82be 3008 f73e
00000110: f23c 0dbf 5e7b 22be dc61 6fbd 96d0 3cbe
00000120: 04fc 69be d3bc f63b 7d27 4dbd 5317 f5bd
00000130: ea7e 10be 501f 193f 5972 33be 3c28 cbbe
00000140: 2cc5 98be 8acb 3e3d 2de5 5bbd 53be a1ba
00000150: 62f8 343d 4d27 c8be c9dd e2bd 1e5b a5bf
00000160: d578 27be 62ce 4d3d 6c19 b53c f68a 64bd
00000170: 28d8 ef3d 7fc9 943d fecd 6f3e 16ea 94bd
00000180: ebf4 8b3d e281 23bd 1d71 ce3d e5a9 b3be
00000190: 8827 be3e aebb 90be e56a 30bf 10b3 9fbb
000001a0: 05c4 aebd 8afa d1bd 92e6 b5bd 5bf3 3bbe
000001b0: 4f69 d2be 5ca5 203e a691 09be fce8 43bd
000001c0: 48e9 bd3c 4273 9cbe 3d57 52be a193 b53f
000001d0: 2228 97bd 1fd3 ccbc cad7 513d 33bd 53be
000001e0: 738f efbc 380e c73d 7e53 303d fc71 00be
000001f0: 99d1 ba3d d190 81be 6447 81bd d98e 69be
00000200: 5076 32bf 16f2 92be 6eae aabe 21ed 8b3d
00000210: a96a 5fbe 2e27 91bd 7dc1 b43d c1a3 c3bc
00000220: 1d26 75be 48fb 3fbc 2bfc 21bd 672f 92b9
00000230: fa31 07be baa2 063e 30e9 e13e 8f21 91bd
00000240: c42a f8bc 2631 3b3e 662f 82be 0aea 1d3d
00000250: a6b3 953e 65f0 e6bd aad2 c8bd 4f49 45bf
00000260: 36f4 023f 34c7 21bd 80ed 9e3b c759 09bf
00000270: 243a c1be 62a9 00bf 8636 2c3e 7130 03bd
00000280: db74 edbd 9abb 043e f3de 1fbe 2c04 42be
00000290: 12c4 05be 4940 073f 801a 073a fe59 3d3d
000002a0: 68f9 10bf 390a a73e 6084 a03e a99a d83d
000002b0: 857e 70bf 54da b4bf 0a36 53bf 1dc2 ba3c
000002c0: ae2b 47bd 8eb2 2f3d c7a6 4e3e f72d f7bc
000002d0: 5ff3 ae3d 5602 aebe 7341 1d3e 3282 c9bd
000002e0: 36a5 a6be 89d9 94be 131f 13bd 7f82 e4be
000002f0: 60f0 933d e1f3 0cbf 5832 34bf feb3 edbe
00000300: 4e34 ecbc b76f 02be 07ac 75be 78f7 70bf
00000310: 71e0 a53e f8c5 92bd 01e5 903d 6c57 b1bc
00000320: 2118 20bf 4193 913d 9a60 523d 7149 24be
00000330: 92e6 edbd b25d 60bd af92 23bf 758c 53be
00000340: 5b36 49be bb01 af3d ce42 98bc 50d1 22bd
00000350: 66fc 9c3d ccca cd3e 7f35 15be f879 a8be
00000360: 3676 3bbe a069 583c ac34 35bd b7e5 9f3e
00000370: ebb4 823e bdf0 8dbf 31a4 d2bc 8d29 03bd
00000380: 4d1d 12bd 4c24 2dbd e30b 42be c1f2 2b3e
00000390: a9b7 1e3e 4bd4 6cbe c8e1 89bc 005a 5139
000003a0: bbd1 85bd 8950 99bd 62d2 2a3c 9a9b a8bd
000003b0: 4b78 103f c0d1 373d 7b1d b1bb 0011 ccbd
000003c0: 45d0 a43d 2638 e0bd b542 58bd b1e0 c73e
000003d0: 57ac 02bf 98f9 f9bc 8508 a33c 121c 623d
000003e0: fb5a 9dbe adcf 07bf 6a7f b4be 86bc 12bd
000003f0: 94f7 63bd f69c 743d 75c9 17be e4fc b2bd
-0.14501795 0.1017022 0.22080237 0.030782146 0.0071883625 0.0856517 -0.032099348 -0.08185123
-0.0044375686 0.084680565 0.24031349 -0.14150554 0.0371057 0.18055034 0.5340509 0.5058713
0.350809 -0.019003207 0.11500408 -0.046063602 -0.7866024 0.12563217 -0.85522294 0.012781826
0.88826716 -0.08747599 -0.022587188 -0.4052107 0.020691685 0.18936549 -0.04553567 -0.71040374
-0.056187075 -0.044539865 0.118306406 -0.77298665 0.13933511 -0.66006255 0.15144926 0.0027746335
-0.011932101 1.4351003 0.063474886 -0.001023596 -0.38230446 0.30182686 -0.95117223 -0.048322264
-0.18055096 0.12040483 -0.4884716 -0.08504742 0.097250275 -0.2361404 -0.16723147 -0.6747907
-0.40082896 -0.36871272 0.08464682 0.063048586 0.0043177037 0.2547667 -0.1123648 0.02838228
-0.06015212 0.057470225 -0.25466353 0.48248434 -0.5517112 -0.15867373 -0.058442935 -0.18438944
-0.22850043 0.007529834 -0.050086487 -0.11967339 -0.14110914 0.59813404 -0.17524089 -0.39679134
-0.2983793 0.04658083 -0.053685356 -0.0012340046 0.04418219 -0.39092484 -0.110774584 -1.2918432
-0.16354688 0.05024565 0.022106849 -0.055796586 0.117111504 0.07264995 0.23418424 -0.07271211
0.06833824 -0.039918788 0.100801684 -0.35090557 0.37139535 -0.28268188 -0.6891311 -0.004873641
-0.085334815 -0.10252865 -0.088818684 -0.18354551 -0.4109597 0.1568808 -0.13434467 -0.047829613
0.023182526 -0.30556685 -0.20541091 1.4185678 -0.073807016 -0.025003014 0.051231183 -0.20677643
-0.029243207 0.09719509 0.043048374 -0.12543482 0.09122009 -0.253058 -0.06312445 -0.22808398
-0.6971178 -0.28700322 -0.33336204 0.06832338 -0.21818031 -0.07087551 0.088259675 -0.023881795
-0.2394032 -0.011717625 -0.039547127 -0.00027882608 -0.13202658 0.13148013 0.4412322 -0.07086479
-0.03029383 0.18280467 -0.25426787 0.038553275 0.29238623 -0.1127632 -0.09805806 -0.77064985
0.51153886 -0.039496616 0.0048500896 -0.53652614 -0.3773967 -0.5025846 0.16817674 -0.03202862
-0.11594554 0.1296219 -0.15612392 -0.18946904 -0.13063076 0.52832466 0.000515379 0.0462284
-0.56630564 0.32624987 0.31350994 0.10576374 -0.93943053 -1.4129128 -0.8250433 0.022797639
-0.04862564 0.042894892 0.20180808 -0.030173285 0.08542513 -0.33986157 0.15356998 -0.09839286
-0.3254792 -0.29072216 -0.035918307 -0.4463081 0.07223582 -0.5505963 -0.7038932 -0.46426386
-0.028833535 -0.12737928 -0.23991404 -0.9412761 0.32397798 -0.07166666 0.07074929 -0.021648131
-0.6253682 0.071081646 0.051361658 -0.1604364 -0.116162434 -0.054776855 -0.63895696 -0.20659049
-0.19649641 0.08545252 -0.018586542 -0.039750397 0.07665329 0.40193784 -0.14571188 -0.32905555
-0.18306813 0.013208777 -0.044239685 0.31229946 0.25528654 -1.1089092 -0.025713058 -0.032022048
-0.035672475 -0.042270944 -0.18949847 0.16791822 0.15499748 -0.23127858 -0.016831294 0.00019965321
-0.065341435 -0.07486064 0.010426136 -0.08232804 0.5643355 0.044877768 -0.0054051257 -0.0996418
0.08047537 -0.109482095 -0.05279799 0.39038613 -0.5104422 -0.030514523 0.019901523 0.05520255
-0.30733475 -0.53051263 -0.3525346 -0.03582432 -0.05565603 0.059720002 -0.14822944 -0.08739641

linear2.bias f4 [4]
00000000: 3811 12bf 3786 0abf 107c e8be fefd e5be
-0.57057524 -0.54111046 -0.45407152 -0.44920343
